public/ei/ei-ei-unknow-pen-cam-object-detection-tensorflow-lite-float32-model.6.lite (tflite, 84584 bytes, 42 tensors)

model_1/bn_Conv1/FusedBatchNormV3 f4 [16]
000000 b2 12 b4 bf 3a 29 c6 40 54 d2 cb c1 58 61 96 bf
       -1.4068205 6.1925325 -25.4777 -1.1748457
000010 5a 20 0d 40 e9 22 74 41 d8 f3 41 40 6c 4c 46 41
       2.2050996 15.258523 3.030508 12.393658
000020 1a 22 53 bf 40 96 24 bd 36 ac 34 40 f1 ed c4 40
       -0.8247391 -0.040182352 2.823011 6.1540456
000030 38 85 9e bf 6a 73 83 40 ba 62 3d 40 e3 b5 08 be
       -1.2384405 4.1078386 2.9591508 -0.13350634

model_1/expanded_conv_depthwise_BN/FusedBatchNormV3 f4 [16]
000000 c6 29 9a be a5 0a 28 40 fb 49 80 40 c6 c0 5e 40
       -0.30109996 2.6256497 4.009031 3.480516
000010 7c cd ea 3f 6b 12 54 40 33 89 a6 40 33 b1 79 40
       1.8343959 3.3136241 5.204248 3.9014404
000020 80 ff 10 3c fd 21 e6 3f c4 61 bf 40 85 85 23 41
       0.008849978 1.7979122 5.9806843 10.220098
000030 69 de a5 be 9c ac cb 40 b8 78 03 40 2b 36 d5 be
       -0.32396248 6.3648205 2.054243 -0.4164289

model_1/block_1_expand_BN/FusedBatchNormV3 f4 [48]
000000 db e4 05 40 14 4a 75 3d be a7 4a 40 49 ac f3 3f
       2.0920932 0.0598851 3.1664882 1.9036952
000010 93 48 fd 3f c3 09 04 40 2e 90 75 40 da f4 63 bd
       1.9787773 2.0630958 3.836925 -0.05565343
000020 f8 a9 b4 3b 13 6b 40 bf c1 96 be 3f 37 b0 57 3f
       0.005513426 -0.7516338 1.4889756 0.8425326
000030 ac d4 0d 40 79 13 26 be c3 d3 27 40 f3 b0 52 40
       2.2161055 -0.16218366 2.6223 3.2920501
000040 b2 10 06 be 76 f1 37 bf a7 3b 47 be 84 94 77 40
       -0.13092306 -0.71852815 -0.1945635 3.8684397
000050 b7 c2 8b 3f ef 82 c4 bd 13 0f b9 3a 8f b6 23 3f
       1.0918797 -0.09595286 0.0014118872 0.6395044
000060 e0 8b 73 40 e4 cd 0d bf 5f 59 23 3e 26 93 a0 3f
       3.8054123 -0.5539229 0.15952061 1.2544906
000070 e9 f8 92 3f 9b 0f 3c 40 83 0c 3c 40 1f b1 14 40
       1.1482211 2.9384525 2.9382637 2.3233106
000080 9e 0e 47 3f 18 09 50 40 dd 05 08 3e da 9a 99 bf
       0.7775668 3.250555 0.13283487 -1.2000382
000090 34 e1 c3 3f ab 2e a2 3f 59 d8 c5 be 60 e3 5e 40
       1.5303102 1.2670492 -0.38641623 3.4826279
0000a0 ed 06 36 40 32 1b 0e 40 ce ac 30 be 7f 31 57 bf
       2.8441727 2.2204099 -0.1725342 -0.840599
0000b0 1a ab a0 40 76 f2 af 3d 30 47 33 40 ad d9 5f 3f
       5.0208864 0.08591168 2.80122 0.8744152

model_1/block_1_depthwise_BN/FusedBatchNormV3 f4 [48]
000000 dc 99 bf 40 4d 48 80 40 2a 76 21 41 68 2a ab 40
       5.9875317 4.008826 10.091349 5.3489265
000010 70 9a a3 bd 62 fd 10 40 56 f5 da 3e da 98 fc 3f
       -0.07988441 2.2654653 0.427653 1.9734147
000020 26 a6 10 40 71 11 80 3f 68 c3 0d 40 44 86 ad 3e
       2.260141 1.0005323 2.2150517 0.338915
000030 c8 6e ff c0 71 81 34 bf 76 38 24 40 59 44 11 3d
       -7.982273 -0.7051001 2.565946 0.035465572
000040 95 72 0f bf 58 ff 70 3f e2 9d 09 3e 3f 90 b8 3e
       -0.56034213 0.94139624 0.13439134 0.3604755
000050 2e c6 05 c0 ca 7d 4c 40 2a d2 bf 40 04 55 b7 3f
       -2.090221 3.1951776 5.994405 1.432282
000060 d2 7a f0 bf 64 3f 2f 40 fc bc c6 3f 59 6d 84 3f
       -1.8787482 2.738244 1.5526423 1.034587
000070 85 44 2d bf 8e 5f 3b 3f 2e 04 ce be ac 77 0f c1
       -0.6768268 0.7319268 -0.40237564 -8.966717
000080 7e c4 1d 40 cd 0b 88 3f d5 ad 1d 40 8a 90 87 3e
       2.465118 1.0628601 2.4637349 0.26477462
000090 5b 01 80 3f 80 18 33 3c b9 4c 90 40 bf 98 02 c0
       1.0000414 0.010931134 4.5093656 -2.040573
0000a0 a1 da 7f 3f 29 a6 d7 c0 d9 a2 89 3e 38 eb 85 3f
       0.99942976 -6.739033 0.26882055 1.0462408
0000b0 4d 0a 2a be dc 17 c3 40 c6 f8 93 3e 35 8a 30 c0
       -0.16605492 6.0966625 0.28900737 -2.7584355

model_1/block_2_expand_BN/FusedBatchNormV3 f4 [48]
000000 0a 69 8a 40 8f 6c 10 40 ec e0 c2 3f 46 ba 4d 40
       4.325322 2.256626 1.5224891 3.2144942
000010 c6 a1 10 40 12 9e a0 40 0b 63 f6 bf 71 46 9a be
       2.2598739 5.0192957 -1.9248976 -0.30131868
000020 03 29 0e 3f 32 73 ae 3f 62 a1 0f 40 fe b8 08 3e
       0.5553133 1.3628905 2.244225 0.13351819
000030 20 61 7e 3f ae 20 fd be 27 1f db 3e 98 26 69 c0
       0.9936695 -0.49438995 0.42797205 -3.6429806
000040 a0 21 d2 3f ea 2b 88 40 7d d3 ff be 63 a4 2c 40
       1.6416512 4.2553606 -0.4996604 2.6975334
000050 49 68 9b 3f 40 62 80 3f 17 31 7e 40 a0 32 09 bf
       1.21412 1.0029984 3.9717462 -0.5359287
000060 4d f4 9a 3f a0 8b 95 3f 3d 30 81 40 4f 6b 6a 40
       1.2105805 1.1683235 4.0371385 3.6627996
000070 1c 0b a5 bd a0 fc 26 c0 5f 88 85 3d 2d 5a 58 3f
       -0.080587596 -2.609169 0.06520151 0.845126
000080 bb 32 ff bf f7 93 0c 40 b1 4e 87 3f 1b fe ef 3f
       -1.9937357 2.196531 1.057089 1.8749422
000090 29 4c 6b 40 19 10 ac 3f 9f 2e 17 40 6d 90 91 40
       3.6765234 1.3442413 2.3622205 4.54888
0000a0 fc 91 0f bf 6c c3 30 40 ea 36 f7 3e 9d 7c bd 3f
       -0.5608213 2.7619276 0.48284084 1.4803654
0000b0 7d 6b 9a 3f f5 c2 8c 3f 42 47 93 bf 39 23 2b 40
       1.2064053 1.0996996 -1.1506121 2.6740248

model_1/block_2_depthwise_BN/FusedBatchNormV3 f4 [48]
000000 33 23 83 c1 c0 3f 4a 3b 8c 34 d5 3f 84 13 07 bd
       -16.392187 0.0030860752 1.6656661 -0.032977596
000010 a2 b0 22 3f 31 8c da be 31 4f 93 3f 64 00 5d 40
       0.6355077 -0.42685083 1.1508542 3.4531488
000020 e8 9a f8 3d 00 a4 9b 40 90 6b 6b be 00 c6 8a 40
       0.12138921 4.8637695 -0.2299025 4.33667
000030 58 06 f1 bf 6a 12 47 be 15 3d 20 40 f9 39 c7 3f
       -1.8830061 -0.19440618 2.5037282 1.5564567
000040 d2 21 8e 3d 96 20 78 40 63 ac 17 40 7f 99 f3 3f
       0.069400445 3.876989 2.3698967 1.9031218
000050 58 27 31 bc 0d 63 cc bd 72 5d c8 3c 41 fd 0b 40
       -0.010812603 -0.0997983 0.02445862 2.1873324
000060 23 28 aa bf 66 3a 6b 40 e8 44 d8 41 d1 51 58 40
       -1.3293499 3.6754394 27.033646 3.3799937
000070 8c ce 17 3f 05 80 53 3f 0c c8 c4 bd cb d1 60 3e
       0.5929954 0.8261722 -0.096084684 0.2195503
000080 ec 8c 56 3f e7 3a 36 40 b8 78 a1 bf e1 64 1a 40
       0.8380878 2.847345 -1.2614965 2.4124072
000090 69 8f 7e c0 1f 78 27 40 94 60 bc c0 fc d9 18 40
       -3.977503 2.6167066 -5.8867893 2.3883047
0000a0 04 62 4b 40 53 27 d1 3f 7d e3 ce 3f b3 0b 83 be
       3.1778574 1.6340126 1.6163174 -0.25594863
0000b0 c0 6b 18 40 4e 60 a2 3e c1 3d 97 3e 6c 93 80 bc
       2.3815765 0.317141 0.29539302 -0.015695296

model_1/block_3_expand_BN/FusedBatchNormV3 f4 [48]
000000 9c 74 77 3e 78 ed 2e 3f 40 91 0d 3f f5 47 2c 3e
       0.24165577 0.683311 0.5529976 0.16824324
000010 37 21 0c 40 a4 ce 81 40 9f 97 8c 3f a6 58 83 bc
       2.1895273 4.0564747 1.0983771 -0.016033482
000020 47 da 8f be c8 cb d7 be 7b f1 81 3f 84 6e 8e 3e
       -0.2809622 -0.4214766 1.0151819 0.27818692
000030 8f 32 9f 3f 7f 84 44 3f ea 92 67 40 3f a7 a0 3f
       1.2437304 0.76764673 3.618342 1.255104
000040 d7 8a fc 3e b8 91 bf be 41 64 8e bd c3 e2 6d 3f
       0.49324676 -0.37415862 -0.06952716 0.92924136
000050 9c 72 1a bf 6f 9c 25 40 ea 1a 6c 40 4d 5f c6 3f
       -0.6033113 2.587673 3.6891427 1.5497833
000060 aa f9 c9 3f 4e eb b5 3d d1 15 df 40 f8 82 ee 3f
       1.5779316 0.088827714 6.971413 1.8633718
000070 3a 41 e0 3f 77 4b 7b be bd 8f 25 40 97 e0 98 3f
       1.7519906 -0.24540506 2.586898 1.1943539
000080 79 54 cb 3e ae af 69 bd 89 1f 6c 40 9d 4a e9 3f
       0.39712885 -0.057052307 3.6894248 1.8225895
000090 a9 5d b2 bf 1d 57 9d 3d 9d 25 25 be a4 f0 ee 3f
       -1.3934833 0.07682631 -0.1612763 1.8667188
0000a0 f6 91 39 3e 7f d1 1c be 8d c7 95 be c7 ca 1a 3c
       0.18122086 -0.15314291 -0.29253808 0.00944776
0000b0 1c 3c f8 3f 11 fb b1 3f 80 79 72 3e 93 a3 94 3f
       1.9393344 1.3904744 0.23679161 1.1612419

model_1/block_3_depthwise_BN/FusedBatchNormV3 f4 [48]
000000 5e fc c0 3e 01 9e bd 3f 2f fa 4e be 70 2e 0e 40
       0.3769254 1.4813844 -0.20212625 2.2215843
000010 a0 1d 35 3f 3b f1 13 41 2a 58 d2 be a6 a8 b1 40
       0.7074833 9.246394 -0.4108289 5.551837
000020 1a 1c a7 3e 2c 5a 99 3f fe da ce 3f 00 2f 91 3d
       0.32638627 1.1980643 1.6160581 0.07089043
000030 40 ab 1b be 36 13 75 3f 4a 4d 3f be 1c ec e6 be
       -0.15202045 0.9573244 -0.18681827 -0.45102012
000040 69 02 04 be 80 0c 32 bc 4c 82 31 3e f0 96 b4 be
       -0.12891544 -0.010867238 0.1733486 -0.35271406
000050 fc ae ec 3d 06 81 d9 be b0 fb a4 3d e8 5b 63 c0
       0.11556813 -0.4248125 0.08055818 -3.5524845
000060 d4 aa 19 bf b2 72 87 40 54 4b 6a 40 1a 3f ec 40
       -0.6002629 4.232751 3.6608477 7.382703
000070 ef af 8d 3e 68 6a c0 3e 64 b4 42 be a0 89 27 3c
       0.2767329 0.37581182 -0.19014126 0.010225683
000080 60 db b9 3f 10 11 e1 3d 64 f9 41 3f 78 de 16 bf
       1.4520073 0.109895825 0.75771165 -0.5893321
000090 2f 06 b9 40 00 4b 41 3c 12 48 af 40 3f 48 70 3e
       5.782005 0.011797667 5.4775476 0.2346506
0000a0 28 d8 ae 3d 78 ec b9 40 60 34 f0 3d 9b 7f 08 3f
       0.08537322 5.810116 0.1172874 0.5331971
0000b0 ba de ea 3f 20 56 8c bc e8 5e 87 3e ea bd be 3f
       1.8349221 -0.017130911 0.26439595 1.4901707

model_1/block_4_expand_BN/FusedBatchNormV3 f4 [96]
000000 22 66 24 40 82 90 a5 3e 6a 60 af 3f 2d 0a 12 bf
       2.5687337 0.32336813 1.3701298 -0.57046777
000010 4e 20 cd 3f 09 d0 6f 3f ac 66 46 40 a4 ee 5f 40
       1.6025484 0.9367681 3.1000166 3.4989405
000020 17 e4 f2 be 7f 16 e9 3f f0 b5 b7 3f 03 2c 57 3f
       -0.47439644 1.820999 1.4352398 0.8405153
000030 7d 12 2f 40 94 8f 9a 40 a8 ba c2 bd 2d 98 39 bf
       2.7355034 4.8300266 -0.09508258 -0.72497827
000040 4d 62 0e 40 4a 03 16 40 e4 67 e8 3e 07 73 07 be
       2.2247498 2.3439507 0.45391762 -0.13227473
000050 07 d3 89 be 16 75 1e 40 b8 66 c1 3f f4 c4 46 3f
       -0.26918814 2.4758964 1.5109472 0.77644277
000060 d2 37 e1 3f 4c 29 06 40 c7 e6 b7 3f d9 54 66 3f
       1.759516 2.0962706 1.4367303 0.8997322
000070 b3 1a a9 3c 46 33 80 3b f6 3e b7 3f f7 f3 f2 3f
       0.020642614 0.0039123623 1.4316089 1.8980702
000080 03 2c f9 3f c3 73 88 3f ef 2b d6 3f 5f 97 9a be
       1.9466556 1.0660328 1.6732157 -0.30193612
000090 61 3a 10 40 b3 f1 27 40 fc f8 e1 3e b2 f4 79 3f
       2.2535632 2.6241271 0.44135273 0.97639
0000a0 24 3d f7 3e 5b 2e f1 3f fe 7e 08 40 1a 2b 41 3f
       0.48288834 1.8842272 2.132751 0.7545639
0000b0 c5 d8 8f 3f bd d4 51 40 bc 0b 36 40 a4 0a bb 3f
       1.1238028 3.2786095 2.8444662 1.4612622
0000c0 9c e4 cb 3f b6 23 62 3f 28 d0 e1 3d 91 6f 28 bf
       1.5929141 0.8833574 0.11026031 -0.65795237
0000d0 fb 4d 2b 40 e7 4e cd 3f 5d 14 15 40 8d 7b eb 3f
       2.6766346 1.6039704 2.3293679 1.839708
0000e0 2c a7 e2 bd a5 ce e0 3f 4f 1a 4a 3f b2 a2 d0 3f
       -0.11067042 1.7563063 0.78946394 1.6299651
0000f0 71 45 da 3f 1a 99 b2 3f bb a4 85 3f fe 3a 30 40
       1.7052442 1.3952973 1.0440897 2.7536006
000100 c1 dd 85 3f f4 76 8f 3f 56 4d fa 3f a8 87 ac be
       1.0458299 1.1208177 1.9554851 -0.33697248
000110 7c 75 2c 40 6b 5e 95 3f f5 da 00 40 56 ec f5 be
       2.6946707 1.1669439 2.013364 -0.48031873
000120 12 b4 ca be bc ed a9 3f 82 c5 d5 3e a8 0e a1 3f
       -0.39590508 1.3275676 0.4175225 1.2582598
000130 91 e4 16 40 ad 90 90 40 5a 10 d4 3f 58 db 9b bf
       2.3577006 4.5176606 1.656749 -1.2176313
000140 e9 eb 8a 3f b4 a7 04 c0 0d 81 c3 be d6 7b 8c 3e
       1.0853244 -2.0727358 -0.38184395 0.2743823
000150 2a cc cb 3f 94 e1 c8 3f cd 5d cd 3f a0 2c b1 3f
       1.5921681 1.5693841 1.6044251 1.3841743
000160 86 20 d3 3f bb 6d ce 3f 74 73 b1 3f 01 65 db 3f
       1.64943 1.6127237 1.3863358 1.7140199
000170 b7 13 07 40 05 4f 2f 40 32 06 3b c0 2c 67 52 40
       2.1105783 2.739198 -2.9222531 3.287547

model_1/block_4_depthwise_BN/FusedBatchNormV3 f4 [96]
000000 07 ca f1 3f 7d 94 8f bf aa 50 3e 3f 1e 1a 0b 40
       1.8889779 -1.121719 0.74341834 2.173469
000010 96 e2 b4 be 1d 5d 2c bf 43 32 6e c0 28 a0 2b 3e
       -0.3532912 -0.6732958 -3.7218177 0.16760314
000020 f4 f0 9e be e3 5a e9 3e 8d ca 0a 3f 98 16 ae be
       -0.31043208 0.45577154 0.5421532 -0.34001613
000030 66 4a 03 3e 16 18 23 c0 2c f0 88 3f b1 00 3c bf
       0.1282135 -2.548345 1.0698295 -0.73438555
000040 12 b4 f0 bd ea b3 a7 40 69 3d d0 3f de fa 00 3f
       -0.11753096 5.240712 1.6268741 0.5038279
000050 b4 96 19 3e 3e 1d ed be 68 06 e5 bc 40 04 5d be
       0.14998895 -0.46311373 -0.027957156 -0.21583652
000060 f4 39 64 40 5c 93 74 be 74 28 27 be 98 9b 20 bf
       3.5660372 -0.23884338 -0.16324025 -0.6273742
000070 60 18 08 bf 8c 39 62 bf f8 e7 5e 3f d2 32 df bf
       -0.53162193 -0.8836906 0.87072706 -1.7437384
000080 d6 9b 35 bd c0 8b 54 be d6 bb 88 be 3f d5 18 40
       -0.04433807 -0.20756435 -0.26705807 2.3880155
000090 b4 80 f2 3e d4 2c fa be 46 6d 6b 3f b1 2b 13 3e
       0.47363818 -0.48862326 0.91963613 0.14372136
0000a0 28 50 54 bd 3e 26 f6 3e 49 f7 5f c0 ff df a6 bf
       -0.051834255 0.4807605 -3.499468 -1.3037108
0000b0 5a ec ad bf 3b bb 88 40 30 14 9f bd 2c 51 5a 40
       -1.3587754 4.2728553 -0.07767522 3.4112043
0000c0 9d 47 22 40 fe e3 24 c0 01 69 9e bd 62 ff 99 3f
       2.535621 -2.5764155 -0.07734872 1.2031062
0000d0 51 d7 cb 3f 60 74 fd bc ec 90 c6 bf 6f 37 56 3f
       1.5925084 -0.030939281 -1.5512977 0.83678335
0000e0 56 6d 7c c0 d9 ae b7 3e c4 a7 8d 3e 5d 0b 08 bf
       -3.9441733 0.35875586 0.27667058 -0.5314234
0000f0 16 9d af be f2 03 fd bd aa 86 61 c0 3b 69 99 bd
       -0.34299535 -0.12354268 -3.5238442 -0.07490774
000100 12 ba 7f 3e e2 b2 35 40 2e ee 2c 40 70 b2 e7 3f
       0.24973324 2.8390431 2.7020373 1.810133
000110 d2 35 81 c0 0c 0c b7 bc 7f 6b cc bf b6 36 b0 bd
       -4.03782 -0.022344612 -1.5970305 -0.08604185
000120 5d ea b5 40 77 1b aa 3f e0 2a 90 bb 9e 9f 43 3e
       5.684859 1.3289632 -0.0043996423 0.19103858
000130 40 71 21 41 cb 4c d7 3f c0 73 80 bb 00 e6 e9 bf
       10.090149 1.682031 -0.0039200485 -1.8273315
000140 02 c0 a6 be d2 9d 04 c0 13 48 51 3e 3c f6 f5 be
       -0.32568365 -2.0721326 0.2043765 -0.48039424
000150 be 2e 27 3d 9c ab 06 3e ef 34 4d 3e 80 b4 81 ba
       0.04081606 0.13151401 0.20039724 -0.0009895712
000160 4b 16 5f 3e 3b 60 8e be e8 ab 17 3d 40 26 c2 bb
       0.21785848 -0.27807793 0.037029177 -0.00592497
000170 e0 86 31 3c 4c 2e 3c be 98 ec 9c 3f dd 06 75 40
       0.010835379 -0.18377036 1.2259703 3.828544

model_1/block_5_expand_BN/FusedBatchNormV3 f4 [96]
000000 99 ba bf 3e 0e 1a be 3f 22 5f f3 3f 08 11 14 40
       0.3744705 1.4851701 1.9013407 2.3135395
000010 36 8e 3f 40 38 42 87 bf c3 25 52 bf e4 24 d0 3f
       2.9930549 -1.0567083 -0.8208887 1.6261258
000020 49 27 15 40 08 d5 ae bf f7 27 2b 40 b5 f7 5e 3f
       2.3305228 -1.3658762 2.6743143 0.8709672
000030 46 9d 9f 3f 77 ad 14 40 4d 0f 18 40 1c fc 16 3f
       1.2469871 2.3230875 2.375934 0.5897844
000040 97 6c f1 3e ce ca a1 3f db 32 0e 40 55 fb 99 3f
       0.4715316 1.2640016 2.221854 1.2029825
000050 b7 5f 84 bd 35 0b 6d 3e 40 ee 00 40 7f 92 25 bf
       -0.06463569 0.23148806 2.0145416 -0.6467666
000060 34 2f 28 40 88 4a a5 3b ea 99 0f 40 3a 42 b3 3f
       2.627881 0.005044285 2.2437692 1.4004586
000070 06 c9 d3 3f 81 48 62 40 94 8c 34 40 53 d5 1e 40
       1.6545722 3.5356753 2.8210802 2.4817703
000080 f7 7a d6 3f 3c a6 7b be 1e 01 00 40 b0 82 14 3f
       1.6756276 -0.24575132 2.0000682 0.58011913
000090 9a 77 08 3f fe fc bd 3f e5 e1 2e 40 8e a3 0d bf
       0.533075 1.4842832 2.7325375 -0.5532769
0000a0 d8 45 ee 3f 55 e7 ca 3f ff b5 2c 40 f9 4b 88 bf
       1.8615065 1.5851847 2.6986082 -1.0648185
0000b0 1b 17 4f 40 a8 ce c5 3f 1a 53 e0 3f f2 52 2b 40
       3.2357852 1.5453691 1.752536 2.6769376
0000c0 21 76 84 40 a0 7a 07 40 c9 f0 ee bd 75 eb dc 3f
       4.13942 2.1168594 -0.1166702 1.7259356
0000d0 0f 8e 87 bf 76 e1 57 bd c7 02 85 bf 3e 58 8c 3f
       -1.0590228 -0.05270525 -1.0391473 1.0964429
0000e0 4f 86 b9 bd 87 60 f0 3f 81 58 01 40 8e 4c ba 3f
       -0.090588205 1.8779458 2.0210268 1.4554613
0000f0 9c 20 ce 3f 61 7b b3 3f 1c 85 be 3f ce 9d 7d 3f
       1.6103702 1.4022027 1.4884372 0.99068916
000100 5e 85 1e 40 e0 ac f6 3f 17 c7 a3 3f 0e a6 ad bf
       2.47689 1.9271507 1.2795132 -1.3566301
000110 85 8a d6 3f 64 29 36 bf 58 bd 8c 3f d3 42 c9 3f
       1.6761023 -0.7115691 1.0995283 1.5723518
000120 4c 5b 06 40 76 af 84 3f c3 77 c7 bf 99 52 ad bf
       2.0993223 1.0366046 -1.5583423 -1.3540832
000130 3a 04 d4 3f 26 7d ed 3d 07 00 44 3f 00 35 cd be
       1.656379 0.11596136 0.7656254 -0.40079498
000140 f2 35 03 40 3b fa d3 3f bc 56 5b 3f 0d d5 f8 3f
       2.0501676 1.6560739 0.8567922 1.9440018
000150 4b 6d 93 3f 02 a9 bb 3d b8 ca 16 40 6b 1b 77 40
       1.1517729 0.09163095 2.356123 3.8610485
000160 8d ad b6 3f 30 75 10 40 01 42 a1 3f 14 da 72 bd
       1.4271713 2.2571526 1.2598268 -0.059290007
000170 6d 8a b9 3f e4 03 cb 3f 4d 72 8f 3f b7 38 d9 3f
       1.4495369 1.5860562 1.1206757 1.6970433

model_1/block_5_depthwise_BN/FusedBatchNormV3 f4 [96]
000000 df 34 16 40 66 bb b5 40 1a 8b 1f be 14 c0 92 bd
       2.346977 5.679126 -0.15580407 -0.07165542
000010 38 43 54 40 6d a8 49 bf 3c cf 7d 3d 24 4a dc 3c
       3.3166027 -0.7877262 0.061965212 0.026890822
000020 ff 08 b0 3f 28 0f 1f 40 5d 2e 98 bf 66 7f 50 bd
       1.3752745 2.4853 -1.1889149 -0.050902747
000030 9b ce 98 3d c8 35 2f 3f a2 35 ee 3f 52 61 c3 bf
       0.07461282 0.6844144 1.8610117 -1.5264075
000040 5e 57 3e bf e4 3c 82 bc 28 34 ed 3b f8 5b 85 3f
       -0.7435206 -0.015898176 0.0072388835 1.0418692
000050 d8 99 33 bf a4 9c 06 3f 66 9f 68 be 0f 14 4f 3f
       -0.7015662 0.52582765 -0.22717056 0.8088998
000060 1d 8b 71 40 a0 79 31 3b 58 31 89 bf 3f 97 44 40
       3.7741158 0.002708055 -1.0718184 3.0717313
000070 f8 36 a2 3f c6 8f 0c c1 f1 66 45 3f e4 52 a4 40
       1.2673025 -8.785101 0.771102 5.1351185
000080 7e 4c 48 40 56 49 bb bf fc 0d 07 3f a0 e0 d6 3d
       3.1296687 -1.4631755 0.52755713 0.104920626
000090 a0 0c 87 be 80 5a 3c 3d 00 07 6e 3f cd bc 4a bf
       -0.2637682 0.045984745 0.9297943 -0.7919434
0000a0 39 ac 90 bf fc bf e2 bd 54 2d 37 c0 a6 bc 13 3d
       -1.1302558 -0.11071774 -2.8621416 0.03606858
0000b0 09 f2 2a 41 18 f9 79 bd 16 4f e1 3f a0 c3 03 bf
       10.684091 -0.06102857 1.760226 -0.51470375
0000c0 1a c9 27 c1 cc e9 b1 3e a0 0b da bc 20 f8 71 3c
       -10.486597 0.34748685 -0.026616871 0.01476863
0000d0 bc 42 f8 be c0 6d 32 40 f2 71 60 bf 92 ca e7 3f
       -0.48488414 2.7879486 -0.87673867 1.8108695
0000e0 c1 b5 2e 40 00 93 88 ba 54 04 d2 3f 64 b8 a6 bc
       2.7298434 -0.0010419786 1.6407571 -0.020351596
0000f0 f7 2c 35 c0 19 e1 6f be 3f 74 dd 3d ea 16 3e 3d
       -2.8308694 -0.23425712 0.10813188 0.04640857
000100 f5 a3 34 be d4 17 ed 3f 82 88 f7 be f7 5f 07 c0
       -0.1764067 1.8522897 -0.48346335 -2.1152322
000110 b6 c8 2b bf dc 96 f1 3e 58 16 6a bc 56 dd 9f be
       -0.67103136 0.4718541 -0.014287554 -0.31223553
000120 0a 75 0d 3f 4a cf ae 3d b3 6c 28 bf 89 7b e6 bf
       0.5525671 0.08535631 -0.6579086 -1.800645
000130 10 01 f7 3c a8 e8 e9 bd bb cd 26 40 7d 72 95 bf
       0.030151874 -0.11421329 2.6063068 -1.1675564
000140 ac 04 b7 bf 49 63 31 c0 4a 36 06 be 54 d1 95 3d
       -1.4298301 -2.771685 -0.13106647 0.07315317
000150 dd 6e 62 40 40 0e cb bf 9d 75 4c bf 46 7a 55 c1
       3.5380166 -1.5863724 -0.79866964 -13.342352
000160 7b 38 eb bf 39 fd af 3f 0c 75 4e bf e9 be 72 3f
       -1.8376611 1.3749152 -0.8064735 0.94822556
000170 00 2e 73 3b c0 61 5a be 98 3d 8c bf 00 c6 25 3e
       0.0037106276 -0.21326351 -1.0956297 0.16188812

model_1/block_6_expand_BN/FusedBatchNormV3 f4 [96]
000000 39 8f 1d bf e0 8c c6 3f 4e a0 18 40 70 c1 60 3f
       -0.61546665 1.5511742 2.3847842 0.8779516
000010 ea 90 86 bf 03 b6 b4 bf ee 6b 54 40 7e 13 33 3f
       -1.0512974 -1.4118046 3.3190875 0.6995162
000020 75 8b 16 3f 5e b4 2a bf 92 c2 fd 3f a3 8e 8f bd
       0.58806545 -0.6668147 1.9825003 -0.07009628
000030 42 1e 23 c0 dc 59 33 40 34 4b 46 40 88 82 94 3f
       -2.5487218 2.8023596 3.09834 1.1602335
000040 62 5c ee 3f f9 c5 b8 3f d7 15 f5 bf 63 dd de bf
       1.8621943 1.4435416 -1.914729 -1.7411312
000050 83 64 1a 3f e7 43 2d 40 e5 b4 44 40 d7 1f d6 3f
       0.6030962 2.7072694 3.073541 1.6728467
000060 76 40 41 3e ba 0e f6 3e 25 eb 3d 40 b1 de 8c 3f
       0.18872246 0.4805811 2.967477 1.100546
000070 3c c7 fb 3e 00 49 00 c0 ae 4a bc 3f a2 f9 45 bf
       0.4917544 -2.0044556 1.471029 -0.77334034
000080 5f 86 8f bd c4 f1 91 3f 4d 05 5a 3c 48 6e 81 3e
       -0.07008051 1.1401906 0.013306928 0.2527945
000090 64 5d f3 3f 0e ab 88 3f bb f8 1c bf 31 75 e3 3f
       1.9012876 1.0677202 -0.6131703 1.7770139
0000a0 ec 8b a3 3f f5 0a 27 40 8f 15 c3 3f 3a 8e 15 40
       1.2777076 2.6100438 1.5240954 2.3368058
0000b0 16 89 f4 3f 8c 27 80 3f 04 49 02 3f e8 6a 0a 40
       1.9104335 1.0012069 0.50892663 2.162775
0000c0 f1 e2 a7 3f ec 0f a4 bf d6 fb c6 bf 82 15 ed 3d
       1.3116132 -1.2817359 -1.5545604 0.11576368
0000d0 f5 0e ff bd c6 48 9d be 2e 67 4e 3f e8 33 fb 3a
       -0.12454025 -0.30719584 0.8062619 0.001916525
0000e0 8a 85 e3 3d f4 ec 8e be 25 d4 c4 bf be 7e eb 3f
       0.11109455 -0.27915156 -1.5377241 1.8398054
0000f0 c8 43 42 bf dc d9 25 3f b7 0d 81 be 37 d4 45 bf
       -0.75884676 0.6478555 -0.25205776 -0.7727694
000100 71 bd ed bf 2e 38 f6 3f 74 b0 0a 40 68 c1 cd 3e
       -1.8573438 1.9235895 2.1670198 0.4018662
000110 66 d7 92 bf 12 66 a4 3e b0 2d c9 3e e0 48 05 3f
       -1.1471984 0.32109123 0.3929267 0.52064323
000120 07 78 ad 3f 21 a6 d0 be f7 77 2d 3e 9c e7 09 40
       1.3552254 -0.40751746 0.16940294 2.1547613
000130 4a ac a9 bd b6 3a ed 3f 15 61 e6 3f ea f2 46 be
       -0.08284815 1.8533542 1.7998377 -0.19428602
000140 bc 9b bb 3f cc 78 ae 3e 48 d4 ae bd 8f 22 70 3e
       1.4656901 0.34076536 -0.08536583 0.23450683
000150 ec dc e7 3f ff 35 18 40 eb 3d 15 40 5f 48 92 3e
       1.8114295 2.3782957 2.3319042 0.2857084
000160 e8 03 3d 3f 1d 12 03 40 8e 59 d1 bd 57 b9 fb bf
       0.73834085 2.0479805 -0.10222159 -1.9665936
000170 27 b0 66 3e 48 ba 7e bf 41 65 1d bf 21 68 cf be
       0.22528134 -0.9950299 -0.61482626 -0.40509132

model_1/head/BiasAdd/ReadVariableOp f4 [32]
000000 ec d8 1a 3c c1 ed b4 3b bd 2b b1 3b 4c e7 67 bc
       0.009451132 0.0055215065 0.0054068253 -0.014154267
000010 9a a5 61 bc 5d 0b c7 3b 93 74 da bb 94 77 81 3b
       -0.013772393 0.0060743527 -0.0066667288 0.0039510224
000020 7a 13 ef bb a5 ac da bb d5 0b d8 3b 8b a3 2f 3c
       -0.007296023 -0.006673413 0.0065932074 0.010720144
000030 70 22 b7 3b f6 83 bd 3b 0f fa d6 bc f1 55 88 bc
       0.005588822 0.0057835532 -0.026242284 -0.016642543
000040 e7 5a 09 bc 9e 5d 8d 3c 2d 7d 2f bc b0 2b 7e bc
       -0.008383489 0.017256554 -0.010710997 -0.015513346
000050 d1 0e 32 bc ef 0b 9e 3b 06 0e 2f 3c f6 5b 5f 3b
       -0.01086779 0.0048232 0.010684496 0.0034081913
000060 4d 9c 30 3c f5 9f 84 3b bc e7 56 bb ad 5b 76 bc
       0.0107794525 0.0040473887 -0.0032791933 -0.015036506
000070 a8 6d f0 3b 7b ff ed bb dd c0 c1 3c 93 c1 76 bc
       0.007337291 -0.0072631217 0.023651535 -0.0150608

model_1/expanded_conv_depthwise_BN/FusedBatchNormV3;model_1/expanded_conv_depthwise/depthwise;model_1/block_5_project/Conv2D f4 [1, 3, 3, 16]
000000 e8 1c 09 c1 b8 e5 93 3d f0 13 92 bf ec c0 ce bf
       -8.569557 0.0722155 -1.1412334 -1.6152625
000010 18 b1 7b 3e 8e b9 cb bd 95 d7 94 3f 1f 70 e6 bd
       0.24579275 -0.09947501 1.162829 -0.11251854
000020 c1 8f fe bd 80 b7 19 bd 91 8a 8f bd 56 25 65 3f
       -0.12429763 -0.037528515 -0.07008851 0.89510095
000030 ea 37 7b c0 66 13 41 3d d3 9b cf 3e 0a c2 41 c1
       -3.9252877 0.04713764 0.40548572 -12.109873
000040 16 db 80 40 67 43 c4 3d 0f 55 e2 bf 47 c8 cf 3f
       4.026744 0.095831685 -1.7682208 1.6232995
000050 ba 3e 4e 3f 67 40 41 be 28 3f ed 3f c2 80 40 be
       0.80564463 -0.18872224 1.8534899 -0.18799117
000060 66 ed f0 bd 43 e2 c0 3f 94 7e 8d bf 92 19 cb 3f
       -0.1176403 1.506905 -1.1054254 1.5867178
000070 e0 84 4f c0 65 ef 56 3d f8 9d 74 3f 39 9e 82 c0
       -3.242485 0.0524744 0.9555354 -4.0818143
000080 33 21 f4 3f 1a 49 bf bd 73 20 a3 3f 55 60 cc bc
       1.9072632 -0.09340115 1.2744278 -0.024948278
000090 1c de ea be ea 36 cd 3d 57 92 b1 bf 3e 81 ea 3d
       -0.4587258 0.1002024 -1.3872784 0.11450432
0000a0 a8 61 07 be 8b b5 a5 be e7 f2 00 3d bd 54 f8 be
       -0.13220847 -0.3236507 0.03148165 -0.4850215
0000b0 76 94 f2 3f b2 88 42 3c 44 e6 43 bf 19 07 99 c0
       1.8951557 0.011873411 -0.7652323 -4.7821164
0000c0 ba 65 21 c1 33 64 fc 3e 7e 09 9c be 9b 22 30 3e
       -10.087336 0.49295196 -0.30475992 0.17200701
0000d0 6c db 8d be e0 ce bd 3c 8c 87 d7 be 4b 66 a6 3c
       -0.27706468 0.023169935 -0.42095602 0.020312449
0000e0 be 4e 16 bd 04 97 a1 3b cf 8c c1 3c c7 db 57 c0
       -0.03669619 0.0049313325 0.023626713 -3.3727891
0000f0 3c f8 c1 bf 75 55 ad 3d a3 51 65 be ac 72 13 c0
       -1.515388 0.08463565 -0.22394423 -2.303874
000100 99 f9 c6 c0 7f 53 24 be 48 3f 4b bf 10 14 3e be
       -6.2179685 -0.16047476 -0.79393435 -0.1856234
000110 85 92 44 bd 0a 04 1d bd 77 b0 e3 3d 46 ce 27 bd
       -0.047991294 -0.03833393 0.111176424 -0.040968202
000120 f6 a1 16 be 5b 31 87 bf f7 8c 37 3e 29 ae bd be
       -0.1471022 -1.0561937 0.17924868 -0.37046936
000130 88 e6 4d c0 7d 8c a4 bf 17 8f a4 3b 51 c5 73 40
       -3.2171955 -1.2855374 0.0050219405 3.8089182
000140 54 53 8e 3f 17 b5 9a 3b 4f a6 69 3f 04 b3 dc 3c
       1.111918 0.0047212946 0.9126939 0.02694083
000150 cb 93 88 3c 72 0c 4d 3d a5 53 c0 be ae 49 49 3d
       0.016672036 0.050060697 -0.37563816 0.049142532
000160 94 21 34 be f9 78 9d 3d 86 8e 87 bc e3 d0 24 3d
       -0.17590934 0.07689089 -0.016547453 0.040238272
000170 62 76 29 bf 42 6d ee 3d a5 fb f6 bc 96 bf e5 40
       -0.6619626 0.11641933 -0.03014929 7.179637
000180 81 7c 12 c1 2d 6c 8f be 96 69 77 3f 89 3b e1 3c
       -9.155396 -0.2801222 0.96645486 0.027494209
000190 06 9e 24 bd ef f6 6c 3d 3f 50 13 bf 3f d1 9c 3d
       -0.040189765 0.05785268 -0.5754432 0.07657098
0001a0 e5 36 d6 bd e8 4e 2a 3b c5 f6 92 bb e7 5f 0b 3e
       -0.10459689 0.0025986973 -0.0044849836 0.13610803
0001b0 b8 b3 9e 3f f1 a1 87 3c af 72 50 be 5c 45 70 40
       1.2398596 0.016556712 -0.20356248 3.7542334
0001c0 5f 50 e8 3f 86 1e 82 bc 1f 23 e3 3e c6 fe ab bc
       1.8149527 -0.015883695 0.44362733 -0.020995509
0001d0 73 1c 2f be 8a e1 73 3d 9b a2 00 bf 23 72 f8 3c
       -0.17100696 0.059541263 -0.50248116 0.030327862
0001e0 65 01 30 be 8c 3b 1f be 1d 75 8a bb 13 19 26 40
       -0.17188032 -0.15550059 -0.004225387 2.5952804
0001f0 4e 78 e4 bf a7 21 e2 ba 00 4c 5c be 42 70 93 c1
       -1.7849214 -0.0017252461 -0.21513367 -18.429813
000200 67 fd d0 3f e0 26 de bc b6 b7 8b 3e e3 12 93 ba
       1.6327332 -0.027118146 0.27288598 -0.0011220839
000210 05 7a d6 3c 51 17 ae 3c 82 f1 01 3e c9 a2 06 3d
       0.02618123 0.021251353 0.12689784 0.032870088
000220 68 60 23 be 79 43 55 3d 87 bd 0f bc 23 9e 7a c0
       -0.15954745 0.0520663 -0.008773214 -3.915902
000230 b2 ac 53 40 92 25 c9 3c 84 7d 01 3e aa b9 a8 c1
       3.3074155 0.024554048 0.12645537 -21.090656

model_1/expanded_conv_project_BN/FusedBatchNormV3 f4 [8]
000000 89 1f 22 3f 03 14 b2 c2 fb 0d a5 c1 d2 96 56 c1
       0.6332937 -89.039085 -20.631826 -13.411821
000010 c7 9b 18 c2 0b a3 2d c0 7e 7e 1d c2 8f 8d d9 c1
       -38.152126 -2.7130764 -39.373528 -27.19412

model_1/block_1_depthwise_BN/FusedBatchNormV3;model_1/block_1_depthwise/depthwise;model_1/block_3_depthwise/depthwise f4 [1, 3, 3, 48]
000000 eb eb 2b be 11 b2 85 bd 90 1a 3e bd d4 c0 b5 bd
       -0.16789214 -0.06528104 -0.04641205 -0.0887467
000010 23 0f 83 3d 9c 75 8c be 5d 13 06 bf 1f 8e 48 be
       0.063993715 -0.2743348 -0.52373296 -0.19585465
000020 70 d9 c2 bd 56 a5 95 bd 95 f0 ed 3c 7a 24 a4 3d
       -0.09514129 -0.07306926 0.029045383 0.0801477
000030 c2 e4 80 3e 4f 89 85 c1 de 1c 9e 3e f7 d3 ea be
       0.25174528 -16.692045 0.308814 -0.4586484
000040 54 57 53 c1 90 5f 98 bd 68 d2 0a 3e cf 93 50 bd
       -13.20882 -0.07440102 0.13556826 -0.05092221
000050 6f a0 99 bb 1c 42 ea be 6f d1 19 bf bb ec 01 be
       -0.0046883146 -0.45753562 -0.60085195 -0.12687962
000060 a6 f2 07 be 97 86 40 bf 7d 9c b6 bd 3b 08 37 bd
       -0.13276157 -0.7520537 -0.089165665 -0.044685584
000070 c2 57 67 3f 70 23 0b 3d 45 57 4d 3e c5 83 49 3e
       0.9036828 0.033969343 0.20052822 0.19679172
000080 71 5e 8e bf 94 59 0d bd d0 04 e3 bc 65 1f d5 3e
       -1.1122571 -0.034509256 -0.027712256 0.41625515
000090 f5 9e 56 3c fa 9c 69 3f 97 fe 38 be 3f 5b 90 3e
       0.013099422 0.9125515 -0.18065868 0.28194615
0000a0 9a 4c 56 be 90 51 14 be 01 9e f1 3e 39 ad 33 bd
       -0.20927659 -0.14484239 0.4719086 -0.04386637
0000b0 a7 2e 80 bc b3 83 0f be ca b9 87 bf 6b 86 0f 3f
       -0.015647246 -0.14015083 -1.0603573 0.5606448
0000c0 69 4d 96 3e a7 94 14 3d d7 29 46 be 64 4a 1c be
       0.29355934 0.03627458 -0.19351898 -0.15262753
0000d0 ff d1 f7 3e 64 f7 65 bf 80 e8 57 bf 46 f0 6d be
       0.48402402 -0.89830613 -0.8433914 -0.23236188
0000e0 84 2d 5e 3e f8 18 e3 bd e0 d9 c0 be df c4 06 3e
       0.2169705 -0.11088747 -0.37666225 0.13161038
0000f0 78 c0 8a 3e fa cf 99 c1 fa ed ef ba 83 9e 2a 3f
       0.27099967 -19.226551 -0.0018305175 0.6664812
000100 8a d5 c1 c0 3f a7 cc bd 3f 73 60 3e 2d c9 55 3d
       -6.057317 -0.09992837 0.21918963 0.05219381
000110 42 d8 5e 3d a5 0d 3a bf b7 48 2f bf b5 dc e5 bd
       0.05440546 -0.7267707 -0.6847033 -0.11223737
000120 c7 62 96 bc f5 0a 43 bf 31 db 2c be 9e 9e b5 bd
       -0.018357648 -0.76188594 -0.1688049 -0.088681445
000130 35 07 34 bf 5a 27 3b 3d a0 33 f3 bd 70 ec d5 3e
       -0.703235 0.045691825 -0.11875081 0.4178195
000140 d1 8c 80 3e 02 91 4b bd 2e 37 79 3e 66 d4 28 3f
       0.25107434 -0.049698837 0.24337456 0.65949094
000150 6c 99 19 3c 1f c6 ae 3f 86 2e 06 be 29 1f ea 3e
       0.0093749575 1.3654212 -0.13103685 0.45726898
000160 4d e9 b1 be ba 3a 80 3d 7e e9 0f 3f f8 44 53 bd
       -0.34748307 0.06261201 0.56215656 -0.051579446
000170 d9 dd 4d 3c 69 ca bb bd 9e 58 c5 bf b9 f6 fc 3e
       0.0125651 -0.09169466 -1.5417669 0.49406984
000180 c2 45 02 be 33 cb 05 3e da 5a 35 3d 9c 87 d6 bc
       -0.12721923 0.13065796 0.044276096 -0.02618771
000190 d2 04 09 bf 67 94 43 bf cf d1 c6 be 38 66 4a bd
       -0.5352298 -0.7639832 -0.38831946 -0.04941389
0001a0 79 5d 9f 3e 81 f8 34 bc e9 a2 d2 be 06 af 3b 3d
       0.31126 -0.011045576 -0.41139916 0.045821212
0001b0 17 a8 71 3d 08 e6 85 c1 71 03 8b be 22 42 e9 bd
       0.058998194 -16.73732 -0.27151063 -0.11389567
0001c0 72 5a 6d c1 74 b0 b0 bc da cb ca 3d 7f ac c2 3d
       -14.834581 -0.021568514 0.09902163 0.09505557
0001d0 57 f9 a6 bd 38 2c fb be 97 ed 41 be c4 d0 18 bd
       -0.081530266 -0.49057174 -0.1893829 -0.03730847
0001e0 7a 71 2b bd af 3b 33 be e3 60 a5 bd c8 10 d3 bc
       -0.041856267 -0.17503236 -0.0807512 -0.025764838
0001f0 28 4d 02 be 42 9a 21 3d d8 7b 4a bd 74 48 88 3d
       -0.12724745 0.039453752 -0.049434513 0.06654444
000200 01 a3 6e 3f 39 b9 09 bd 55 f5 87 3e 62 a6 74 3e
       0.93217474 -0.033623908 0.2655436 0.23891595
000210 8b 35 25 3c bd 8e 2e 3f 0b d3 de bb 4d db 66 3d
       0.010083566 0.6818655 -0.0068000606 0.056361485
000220 c4 cd 5b be dc d6 04 3d 4b 86 08 3d 4b 32 02 bd
       -0.21465212 0.03243147 0.033331197 -0.031786244
000230 1d 5a ca bd 40 3e c1 3c d2 1d 2c bf fe e3 a0 3d
       -0.09880469 0.023589253 -0.67233 0.07855986
000240 4f 3f ad be d3 78 c6 be 9d f6 9c be 18 37 6e be
       -0.33837363 -0.38764057 -0.306569 -0.23263204
000250 a6 5b 9e bd 27 06 c5 3e 68 11 27 3f 65 ab 9a be
       -0.07732324 0.38481256 0.65260935 -0.3020889
000260 00 e8 c2 bd e2 86 22 be f9 b8 8c bd f7 e3 0b 3e
       -0.09516907 -0.15871766 -0.06871218 0.1366118
000270 8d 28 29 3f c8 b6 72 c1 94 83 94 3d 2e a1 84 bf
       0.660775 -15.169624 0.07251659 -1.0361688
000280 9d cf 62 c1 d5 e0 aa bd 55 c0 a9 3e b9 7c 1a bf
       -14.175687 -0.083436646 0.3315455 -0.6034656
000290 e2 39 67 3e 0c 48 11 bf d6 2c 0e bf f4 d0 4f be
       0.22580674 -0.5675056 -0.55537164 -0.20294553
0002a0 93 d1 22 3e d9 5d 36 bf 0c f3 e0 bd 7c 79 b4 bd
       0.15900259 -0.7123695 -0.109838575 -0.08812234
0002b0 da 62 d0 3f cd 84 04 be 13 54 89 3e 71 a5 22 3f
       1.6280167 -0.12941284 0.26821956 0.63533694
0002c0 ea 62 c2 be 67 a1 07 bd cf 8d 63 bd dc 2a 27 3f
       -0.3796609 -0.03311291 -0.05555516 0.65299773
0002d0 e7 69 cd bc fc cb b9 bf 76 79 1c be f8 c3 a3 3e
       -0.025074912 -1.4515376 -0.15280709 0.3198545
0002e0 e2 9a ed 3d 8f 18 1b 3f b9 13 f1 3e 78 c4 34 bd
       0.11601807 0.6058435 0.4708536 -0.04413268
0002f0 25 ac 0b bf 6a 82 f4 be b3 6f 7e 3f 95 23 20 3f
       -0.54559547 -0.47755748 0.9938919 0.62554294
000300 b4 f2 fe 3e 2a 23 81 be 09 4c 61 bf e4 1b 2d bf
       0.49794543 -0.2522214 -0.88006645 -0.6762068
000310 8b 9a 88 3f ae 7e 90 3e 23 ef 1d 3f 9a cb ba be
       1.0672163 0.2822165 0.6169302 -0.3648346
000320 a7 ea b9 3e 98 ec 3e be f2 98 b8 be 3e 8c 1d 3e
       0.36311838 -0.18644941 -0.36054188 0.1538553
000330 0c ad 6c 3f 9c 1f 59 c0 dd 94 8d bc b9 60 af 3f
       0.9245155 -3.3925543 -0.017282898 1.3701392
000340 98 eb df c0 74 ee e5 bd ee 61 f0 3e b8 a7 7e bf
       -6.997509 -0.11227122 0.46949714 -0.9947467
000350 04 bd 2f 3f e4 90 52 bf 34 72 25 bf a5 15 43 be
       0.6864779 -0.82252336 -0.64627385 -0.19051225
000360 0a 05 f6 3e e0 cd 18 bf a7 01 37 be 28 a0 93 be
       0.4805072 -0.5968914 -0.17871724 -0.28833127
000370 79 a6 c6 bf 42 11 8c be 9b 26 17 be 7f 08 79 3f
       -1.5519553 -0.27356917 -0.1476082 0.9727859
000380 f0 86 7c 3e cd 39 32 bd d7 57 f5 3e 83 23 7f 3f
       0.2466085 -0.043512154 0.4791858 0.9966356
000390 5e 5f 48 bd 30 10 1b c0 40 1a 0d be 5e 0c a5 3e
       -0.048919074 -2.422863 -0.13779545 0.32235998
0003a0 12 74 2a 3e 80 7d a5 3f c7 74 13 3f 96 b5 40 bd
       0.1664584 1.2928925 0.57600063 -0.047048174
0003b0 53 b0 2b bf 42 b3 04 bf 3b 8b c2 3f 6f d2 29 3f
       -0.67065924 -0.51836026 1.519874 0.6633672
0003c0 8e 8d 56 be 1c 35 c2 3d ac 37 dd be 24 6a e5 be
       -0.20952436 0.09482786 -0.43206537 -0.4480754
0003d0 c4 42 7e bf 3f b8 24 be bb 89 51 3e 45 60 db bd
       -0.99320626 -0.1608591 0.20462696 -0.10711721
0003e0 10 08 ea 3e 2a 76 e8 bc 1f 24 7e be 27 12 2b 3d
       0.45709276 -0.028376658 -0.24818467 0.04176536
0003f0 cf 88 d0 3e fc 32 83 c1 c5 53 8b bd 4d eb eb be
       0.40729377 -16.399895 -0.06803087 -0.46077958

model_1/block_1_project_BN/FusedBatchNormV3 f4 [8]
000000 21 8f d6 c0 75 66 8f c1 af 88 fc 41 ed 1a e6 41
       -6.704972 -17.925028 31.56674 28.763147
000010 d0 ca 87 40 03 f2 0c 40 db 77 ee 41 a0 57 f0 40
       4.2435074 2.2022712 29.808523 7.5106964

model_1/block_2_depthwise_BN/FusedBatchNormV3;model_1/block_2_depthwise/depthwise;model_1/block_3_depthwise/depthwise f4 [1, 3, 3, 48]
000000 26 57 6b 3d fb c3 1c bd 46 f5 18 3e 28 c3 7d 3f
       0.057456158 -0.03827284 0.14937314 0.9912591
000010 e2 08 98 3c 75 d0 b6 3e c5 76 e3 bc d1 54 21 3e
       0.018558923 0.35705915 -0.027766595 0.15755011
000020 70 68 d8 3d a7 9a 67 3d bb 06 1a 3d 54 65 5f 3d
       0.10566795 0.056543972 0.037604075 0.054539993
000030 87 07 eb bd 13 da a1 bd f7 52 23 be 9a 98 98 3d
       -0.11476045 -0.079029225 -0.15949617 0.074509814
000040 00 a8 83 bc df 72 89 3d 44 99 88 bd 34 a7 42 bf
       -0.01607132 0.06711363 -0.06669858 -0.7603638
000050 2e 0d 6b bd 50 5e 2a be 3f a3 87 3f e9 2c 7b bd
       -0.057385616 -0.1663754 1.0596694 -0.061322127
000060 f2 f0 95 bc c1 1a 11 3d e2 d3 06 be 0c 7a 0c 3d
       -0.018303368 0.035425905 -0.13166764 0.03429608
000070 3d 40 03 bd 62 59 00 3e 91 a6 84 3d 8d b0 28 3f
       -0.032043684 0.12534097 0.064770825 0.65894395
000080 d0 4a 24 3f 80 ca 3d 3e 6e e2 9a 3e 05 bb 5f be
       0.64176655 0.18534279 0.30250877 -0.21848686
000090 92 70 7d 3c 43 49 3a 3e 18 9b a2 bc 1f ad f2 3a
       0.015468733 0.1819201 -0.019849345 0.0018514729
0000a0 5e bf bc 3d 9e 05 45 be 89 ee 52 bd 52 2e 5d bd
       0.09216188 -0.19240424 -0.051497016 -0.053999253
0000b0 3b 46 e1 3d d6 a9 42 3c 1d b7 70 bd 8c 13 47 bd
       0.109997235 0.011881312 -0.05876838 -0.048602626
0000c0 42 55 d9 3f 06 89 dd 3d 8f 0d e3 3d ed a6 94 bf
       1.6979144 0.10817151 0.110865705 -1.1613442
0000d0 18 0c 08 3e ea b6 c2 3e 29 6c 8c 3e d3 5f 73 3d
       0.13285863 0.38030177 0.2742627 0.059417557
0000e0 3a 9c 54 3f d0 70 55 3f 62 8c f4 3c 3a 32 99 3e
       0.8305088 0.83375263 0.029852096 0.29921132
0000f0 e3 82 2e bf da 9e 56 be 50 62 b2 3c 72 b9 90 3d
       -0.6816847 -0.20959035 0.021775395 0.07066621
000100 b4 a2 6e 3f bf 55 e7 be 46 76 33 be 82 75 c2 be
       0.93217015 -0.45182607 -0.17525586 -0.37980276
000110 96 9f 69 bf 45 df 40 3e b2 a9 68 bf 5d d8 b6 3d
       -0.91259134 0.1883517 -0.90883934 0.08927987
000120 cc da f3 3d 5c bc d1 3e b1 d1 4c bf 16 f5 b0 be
       0.119069666 0.4096402 -0.80007464 -0.34561986
000130 52 96 2f 3e c0 c9 0b 3f 0b 2e 1e 3d ae 02 55 bf
       0.17147186 0.5460472 0.03861813 -0.83207214
000140 ff 0f 3f 3e ab 0e cd be d1 03 82 3f 88 30 a7 3d
       0.18658446 -0.40050253 1.0157415 0.081635535
000150 22 9e 1a bf ae 23 81 be 84 6b 90 bd bb ad e4 3d
       -0.6039754 -0.25222534 -0.07051757 0.11165949
000160 43 aa da be 50 35 8f be 1d 22 3a be b9 c3 97 3c
       -0.42708024 -0.27970362 -0.18177076 0.018525945
000170 e0 96 6b be d4 fe 04 bd e0 3b 93 bf 35 e9 e0 3d
       -0.23006773 -0.032469586 -1.1502647 0.10981981
000180 00 7b da be b6 85 16 bd 35 a3 60 3d 84 ae 07 3e
       -0.42671967 -0.03674861 0.054843146 0.13250166
000190 dd 97 21 bb a2 02 92 3e 31 8e d4 3d e7 93 c8 3d
       -0.0024657168 0.28517634 0.10378683 0.09793835
0001a0 32 ed 3b 3e 5d 80 63 3d 1b 87 70 bd 6d 63 5f 3e
       0.18352202 0.05554234 -0.058722597 0.21815272
0001b0 77 0a 44 be ba 25 ca bc 98 84 6f 3d 6e e3 02 3d
       -0.19144617 -0.024676193 0.05847606 0.031955175
0001c0 55 33 43 bf 34 78 6c 3e 45 cc 03 bc dc 03 03 3f
       -0.762502 0.23092729 -0.008044307 0.51177764
0001d0 cf 81 91 be d3 27 b5 bd 2d 31 1b be 7a d8 26 bd
       -0.2841935 -0.088454865 -0.15155478 -0.040733792
0001e0 60 bf ed bc 08 21 b1 be ce 8f 97 bd 39 1e ef 3d
       -0.029021919 -0.34595513 -0.074004754 0.116756864
0001f0 a9 16 f1 bd 17 16 03 3e c2 4b 91 3c f7 b7 1a be
       -0.117719 0.12801395 0.01773632 -0.1510924
000200 bc 07 85 3e 3f 67 22 be a6 7c 04 3e 7d c6 19 be
       0.25982463 -0.15859698 0.12938175 -0.15017124
000210 c0 d6 4e bb 81 a5 81 3e 5e ef e9 3e 7e 6a 4d bc
       -0.0031561106 0.25321582 0.45690435 -0.012537597
000220 41 55 89 3e c0 db d5 3d bc ae ba bd d9 30 91 3d
       0.26822856 0.104423046 -0.09115359 0.07089395
000230 a2 03 94 be 2a a1 5f 3c 1f f7 89 bc 0e 66 e2 bc
       -0.28909022 0.013649264 -0.01684147 -0.027636554
000240 65 c6 d6 3f bb ed a2 3d a4 bd e8 3b a2 c7 65 bf
       1.6779295 0.079555 0.007102685 -0.8975774
000250 19 9c 85 3d e6 b0 f6 bd 0e 25 67 3f da b8 bb bd
       0.06523914 -0.120454594 0.90290916 -0.09166117
000260 4d eb 7a 3d 78 ad 70 3d 2f d4 54 bd 9b c2 bb 3e
       0.061259557 0.058759183 -0.051960167 0.3667191
000270 af 9e b7 bd 31 16 24 bc 17 72 89 3d 85 18 9c be
       -0.08965813 -0.0100150565 0.06711214 -0.30487457
000280 a7 94 8a ba 85 1f cd be 76 ae 33 be 92 0d 13 bf
       -0.0010572866 -0.4006311 -0.1754702 -0.5744258
000290 df 87 b8 3d c6 d7 0b bf 44 ef 83 bf 7c db e8 bd
       0.0901029 -0.5462612 -1.0307393 -0.11369988
0002a0 9a 6b 06 3d f2 0d 12 3f 12 40 be be 6d 66 05 bf
       0.03281746 0.5705253 -0.37158257 -0.52109414
0002b0 3b 3e 73 bd 82 95 57 3f 7c 13 4e 3d 9c 45 39 bf
       -0.05938552 0.84212506 0.05031155 -0.7237184
0002c0 79 4b 0a 3f 29 b0 b0 be 8a c7 9c bc 3d ba 81 3f
       0.5402141 -0.345094 -0.019138116 1.013496
0002d0 db c2 28 bd b4 3d a0 3e 03 fb e8 be d0 23 23 3d
       -0.041201454 0.31297076 -0.45504007 0.039829075
0002e0 0d ea ab be dc cc b8 be e2 25 74 3e cd d6 10 bf
       -0.33577004 -0.36093795 0.23842576 -0.5657776
0002f0 3c b5 97 be 7b 79 6f bd 6c 35 e8 bd 90 7e bf bc
       -0.29630458 -0.058465462 -0.113383144 -0.02337578
000300 35 5d b3 3e bf 67 c1 bf cb f1 6d bf 23 fb 85 3f
       0.3503205 -1.5109786 -0.9294707 1.0467266
000310 3f 85 1b bf c0 de 10 bf f1 e5 53 c0 79 36 37 bf
       -0.6075019 -0.5658989 -3.3109095 -0.71567494
000320 6b 68 58 bf 81 7b 20 bf 17 13 07 3f 96 dc 5f bf
       -0.8453433 -0.6268845 0.52763504 -0.8744596
000330 4b 70 d9 3f 61 98 8f 3f d4 01 02 3e 3e 07 97 bf
       1.6987394 1.1218377 0.1269601 -1.1799085
000340 9c bb 1c bf 99 28 83 3f 76 b1 be 3e 1a 2f 36 bf
       -0.6122377 1.0246764 0.37244767 -0.7116562
000350 cf 99 93 3f 66 50 73 3f f9 8a 6e 3f 36 16 4b 3f
       1.1531314 0.95044553 0.93180805 0.79330766
000360 8c b0 62 3f 0f 05 3c bf fd b7 4c c0 38 c4 f2 3d
       0.8855064 -0.7344522 -3.1987298 0.11853832
000370 5e 77 6c bf 9c 58 53 c0 12 fc cc 3e 11 7d 59 3f
       -0.9236964 -3.3022833 0.40036064 0.8495646
000380 a7 5b 7f c0 5a 9c 55 3f 13 5b 6d be e5 57 a8 be
       -3.989969 0.834417 -0.23179273 -0.32879558
000390 34 7d f5 3f ff f1 2e bf 25 a9 b2 3f 77 70 fc 3d
       1.9178834 -0.68338007 1.3957869 0.123261385
0003a0 ee 13 2f 3f d2 9b 6a be c0 c6 48 3f bb 6c 51 3f
       0.68389785 -0.22911003 0.7842827 0.81806535
0003b0 72 66 57 3f a9 5d 00 bf f1 6d 6a 3f ed 91 02 3f
       0.84140694 -0.50142914 0.9157401 0.51003915
0003c0 0e 28 37 3f b0 62 6c 3d 37 8c b6 3e 2e de f6 bd
       0.71545494 0.057711303 0.3565385 -0.12054096
0003d0 20 f7 da 3c a7 0d 8b be 79 47 92 3f 7a a0 d3 3d
       0.026729167 -0.27158853 1.1428062 0.10333343
0003e0 57 ae 1e be 24 04 c2 3d a8 17 e0 be 6e 55 60 bd
       -0.15496193 0.09473446 -0.43768048 -0.054768972
0003f0 99 b9 cb b9 92 dd b4 be 16 70 ec 3e fb 39 1f 3d
       -0.00038857458 -0.35325295 0.46179265 0.038873654

model_1/block_2_project_BN/FusedBatchNormV3 f4 [8]
000000 e6 07 8e c1 f7 a2 9b 41 cc 8e 99 c1 1d bf b4 c1
       -17.753857 19.454573 -19.194725 -22.593317
000010 0f 9e 81 41 67 df 54 c0 a4 2f ce 41 75 47 3f 42
       16.202177 -3.3261354 25.773262 47.819782

model_1/block_3_depthwise_BN/FusedBatchNormV3;model_1/block_3_depthwise/depthwise f4 [1, 3, 3, 48]
000000 15 a1 4f 3e ff 01 30 be ca af 40 3f e3 5c 39 3e
       0.20276292 -0.17188261 0.7526823 0.1810184
000010 c2 73 99 3e fa be de bd 39 65 2d 3f b6 8f 82 be
       0.2997113 -0.1087627 0.6773258 -0.25500268
000020 82 d3 4b 3e c7 31 23 be 10 09 69 be 55 a7 69 3e
       0.19904903 -0.15936957 -0.22757363 0.22817738
000030 73 c7 da 3d 56 86 84 bd 4f 54 ed be d9 55 33 bf
       0.10682573 -0.06470935 -0.46353385 -0.7005287
000040 86 83 40 3f 61 0f 7d 3e 0e a9 88 3e 6f 24 0f 3f
       0.7520069 0.24712898 0.26691478 0.5591497
000050 b3 70 68 3e 10 c4 06 bf a5 95 ce be 5e a9 af 3e
       0.22699241 -0.5264292 -0.40348545 0.34308904
000060 b5 5b 38 be a2 d4 12 be 68 23 9f bd 74 0a 58 be
       -0.18003733 -0.14338925 -0.07770425 -0.21097738
000070 b4 3a b2 be 97 03 b4 3e b7 aa 96 be 34 8b 35 bf
       -0.34810412 0.3515899 -0.2942712 -0.7091553
000080 23 9a 1b bd dd 03 91 3e 2e b3 c2 3d e2 f9 3b 3e
       -0.037988793 0.2832326 0.09506832 0.18357041
000090 49 40 9e be 9c 33 75 3e 5f c0 39 be 9e 97 e0 bd
       -0.3090842 0.23945469 -0.1813979 -0.10966419
0000a0 cb a2 80 3e 37 37 b1 be fa 1b 39 3e f1 3d 37 3e
       0.251242 -0.34612438 0.18077078 0.17894723
0000b0 01 27 0c be ee 4b 89 3d 5f 0d a6 3e 8f 01 40 bd
       -0.13686754 0.067039356 0.32432076 -0.046876486
0000c0 b4 54 74 3e b6 8e 39 be ca 2d 7d 3f 7b e4 5f 3e
       0.23860437 -0.18120846 0.98897994 0.21864502
0000d0 25 20 e0 be 2d a7 60 be 7e 69 b6 be c0 a9 ab be
       -0.43774524 -0.21938772 -0.3562736 -0.33527946
0000e0 56 42 a4 3e 78 55 3c be 24 27 39 be 8e 6d b5 3e
       0.3208186 -0.18391979 -0.18081337 0.35435146
0000f0 69 de 25 3e 27 4e 2f be 33 ee 1e bf 57 15 38 3f
       0.16198124 -0.17119657 -0.62082213 0.7190756
000100 2e bc 8d be d6 80 9a 3e b1 42 e7 3e 5e 4c 69 3f
       -0.27682632 0.3017642 0.4516807 0.9113215
000110 2b 3c 93 3e 0b a9 51 bf c6 bd 80 3e 69 31 f7 3e
       0.28756842 -0.81898564 0.25144786 0.48279884
000120 ba 2c 93 be 1c b8 8a be c6 8b aa bd ca 64 86 be
       -0.2874506 -0.2709359 -0.08327441 -0.2624877
000130 b6 02 93 3e 2c 75 e5 3e d4 88 14 be 1f 9d 49 bf
       0.28713006 0.44815958 -0.14505321 -0.7875537
000140 b9 db 80 be 57 ae 09 3f 8c e0 e4 3d 85 55 75 3e
       -0.25167635 0.53781646 0.111756414 0.23958404
000150 73 c0 c6 be 9f 91 c0 3e 06 80 98 be 7b d5 96 bd
       -0.38818702 0.376111 -0.29785174 -0.07364937
000160 4d 42 c3 3e bc b3 e2 be 58 92 85 3e 11 a8 86 3e
       0.3813652 -0.4427775 0.26088214 0.263001
000170 b7 b2 dc bd 42 ba 4b bf 74 88 cd 3e 97 51 11 be
       -0.10776275 -0.7958108 0.40143168 -0.1419128
000180 fd 88 d0 3d 3a 53 ac bd 4e 5b 09 3f 5d fc bf 3d
       0.101823784 -0.08414312 0.53654945 0.09374306
000190 e5 ac d0 3d 5a e5 05 be 26 9c 97 be 0e 0b 1b be
       0.10189227 -0.13075772 -0.2961132 -0.15140936
0001a0 27 f4 11 3e 7b d9 69 bd 07 10 92 3c 86 6d 21 3e
       0.14253293 -0.05709217 0.017829908 0.15764436
0001b0 13 b1 66 3d ae 1f fe bd ae af b8 be 6a 25 13 bc
       0.056321215 -0.12408386 -0.36071533 -0.008981088
0001c0 42 4c c8 be df ba ed 3d 7e 2b 42 3e ee eb fe 3e
       -0.3912068 0.116079085 0.18961903 0.49789375
0001d0 e3 19 e5 3d 45 bd c8 be 2d 9b 1a 3e d6 43 32 3e
       0.11186578 -0.392069 0.15098257 0.1740869
0001e0 3d 8e 1f be d4 c1 1f be 52 85 53 bd 25 cb 97 bd
       -0.15581603 -0.15601283 -0.051640816 -0.074117936
0001f0 95 d8 23 3e b8 ca 33 3e 59 2f d3 3e 5f 07 0e bf
       0.16000588 0.175578 0.4124706 -0.5548
000200 9e 87 79 be af 8e 95 3e 21 cc 46 3d 38 74 c7 3d
       -0.2436814 0.2921042 0.048534516 0.09738964
000210 0f bd 0e be 7f da 36 3e 4f d2 06 be 0a ca 49 bd
       -0.13939308 0.17856787 -0.13166164 -0.049264945
000220 30 b5 4f 3e 6e 35 40 be 95 e5 df 3d d0 d3 00 3e
       0.20283961 -0.18770382 0.10932461 0.125808
000230 12 5f 04 bc d0 5c 56 bd fb 2c 24 3e f6 8b cd bd
       -0.008079307 -0.052334607 0.16032784 -0.10036461
000240 bf 57 8a 3e 69 25 56 be 39 55 a5 be 11 5e 77 3e
       0.2702007 -0.20912708 -0.32291582 0.24156977
000250 e7 15 9f 3e 61 02 86 be cc 62 4f 3f 98 17 b6 be
       0.31071398 -0.2617369 0.8101013 -0.35564876
000260 ae 5e 96 3e ae 4f 50 be 04 bd 51 be 55 56 c8 3e
       0.2936911 -0.20342895 -0.2048226 0.39128366
000270 e1 c9 30 3e e7 94 31 be 05 a9 aa bd f5 48 7e bf
       0.1726451 -0.17341958 -0.08333019 -0.99330074
000280 77 cd 6e 3f 8d 1a af 3e a9 70 d0 3e 3e f8 8e be
       0.93282264 0.34199944 0.40710953 -0.2792377
000290 fc 29 92 3e f4 16 42 3f 69 aa 1e bf 52 0a fc 3e
       0.28547657 0.75816274 -0.61978775 0.49226624
0002a0 ec 08 d3 3e eb 91 86 be b0 d1 e8 bd 06 ef a5 be
       0.41217744 -0.26283202 -0.1136812 -0.32408923
0002b0 7f d7 29 bf d5 9b fa 3e 09 a4 a8 be 6f 85 57 bd
       -0.66344446 0.48947015 -0.3293765 -0.052617487
0002c0 b5 6b 85 be d8 e9 f1 3e 11 96 16 3e 64 85 8f 3e
       -0.26058736 0.4724872 0.14705683 0.28031456
0002d0 8a 69 cd be 6f 0d ba 3e b5 d9 94 be 97 5f e3 3e
       -0.40119582 0.36338374 -0.29072347 0.44408867
0002e0 26 40 d8 3e fc b4 ee be 7c 46 8d 3e db da 88 3e
       0.4223644 -0.46622455 0.27592838 0.26729473
0002f0 2f 6b 04 be e4 d4 2c 3f fa 14 ce 3e 6c 95 02 be
       -0.12931512 0.67512345 0.4025038 -0.12752312
000300 27 f1 bf 3e 7a 6c 73 be ac 76 02 bf 66 8d a7 3e
       0.37488672 -0.2377185 -0.5096233 0.32725066
000310 4e 60 38 bf 76 3c d0 be 18 a4 11 bf 02 b0 00 bf
       -0.7202195 -0.40671128 -0.5689101 -0.50268567
000320 f2 a0 da 3e 37 5e 6b be f4 27 b9 be 67 de 1a 3f
       0.42700917 -0.22985159 -0.36163294 0.6049561
000330 47 6e 85 3e a6 00 4b be 3a 84 10 be 4f 21 43 3f
       0.26060697 -0.19824466 -0.1411294 0.762227
000340 8a 22 f5 be a1 37 cf 3e 0a bc 30 3f 9e af b9 be
       -0.47877914 0.4047213 0.69036925 -0.36266798
000350 1b fe de 3e 28 43 63 3f bc f5 ab 3e de 35 5c 3f
       0.43553242 0.8877435 0.33585918 0.86019695
000360 60 72 34 3f 2a 98 e5 be 78 30 1f be ab a0 d7 be
       0.7048702 -0.44842654 -0.15545833 -0.42114767
000370 6d 8d 8b 3e 8b a9 38 3f 77 e4 09 be 73 d2 d7 3d
       0.27256337 0.721337 -0.13466059 0.10538187
000380 0e 6d c1 be a7 27 5c 3f d2 b9 34 3e b9 f6 bc 3e
       -0.37778515 0.85998005 0.1764901 0.36906984
000390 5b 60 1a bf 1f 71 14 3f e8 ac ea be 0f b4 22 3f
       -0.60303277 0.5798511 -0.45835042 0.63556
0003a0 d0 01 22 3f 62 92 18 bf 6b 3a cd 3e 6c dd bf 3e
       0.63284016 -0.5959836 0.40083632 0.3747362
0003b0 dd 27 3c be d3 b0 88 bd 56 f7 0b 3f 33 13 33 be
       -0.18374582 -0.066743515 0.5467428 -0.17487793
0003c0 ad 3e 40 3e a2 a2 14 be 01 3b 87 be e5 68 2b 3e
       0.18773909 -0.14515164 -0.26412204 0.16739233
0003d0 fd 24 53 3e 53 94 4c be 74 a1 9b be 28 11 7a be
       0.20619579 -0.19978456 -0.30396616 -0.24420607
0003e0 51 5b 3f 3e c5 a3 99 bd 57 28 2b be c6 a5 8d 3e
       0.18687178 -0.0750194 -0.16714607 0.27665538
0003f0 3b 3f c6 3d 0d 75 ab bd 54 c8 e4 bd c8 78 ad 3d
       0.09680029 -0.08371935 -0.11171022 0.08470303

model_1/block_3_project_BN/FusedBatchNormV3 f4 [16]
000000 d4 cb d7 c1 4a f0 4a 40 fc 1e 59 40 31 9b 25 c1
       -26.974525 3.170916 3.3925161 -10.350389
000010 27 42 9b 3f 55 14 ea c0 2b 22 3e c1 26 30 d6 c1
       1.2129563 -7.314982 -11.883342 -26.77351
000020 54 47 55 40 50 a3 6a 41 41 52 e3 41 30 3c f3 c0
       3.3324785 14.664871 28.415163 -7.601097
000030 57 7e 9e c0 c6 40 e2 c1 20 85 ad 41 c2 89 cc c1
       -4.9529223 -28.281628 21.690002 -25.567265
